labs/lab-04-torch-mpl-and-cnn/multilayer-checkpoint.pth.tar (torch_old, 182748 bytes, 6 tensors)

layer1.weight f4 [50, 784]
000000 58 3a 07 bc 37 b0 08 bd a0 1a df ba 3a cb a0 3c
       -0.008253656 -0.033371177 -0.0017021485 0.019628156
000010 af e6 0c bd 45 32 a1 bc d4 f5 51 3c 2a 3e 5c bc
       -0.034399685 -0.01967729 0.012814958 -0.013442555
000020 a0 bf 29 3b 80 e7 be 3b 6c 07 07 bd 42 a1 8c 3c
       0.002590157 0.005825937 -0.032966062 0.017166737
000030 2e 5d 06 bd a5 ba 08 bd 9a eb d2 3b 8c cd b8 3c
       -0.032803707 -0.033381123 0.0064367773 0.02255895
000040 a3 27 af bc ae d9 94 3c 68 19 a7 3c 08 5a a6 bb
       -0.021381205 0.018170204 0.020397857 -0.0050766505
000050 20 b4 52 bb b0 c4 32 3c e8 f6 88 3b 2e fb 03 bd
       -0.003215082 0.010911152 0.004179824 -0.032221965
000060 30 60 d7 bc 2e e7 e4 3c df 8b 06 3d 30 88 84 3c
       -0.026290983 0.027942266 0.032848235 0.01617822
000070 f5 31 0c bd 50 17 11 3b 60 74 c1 3c bc bc 1e 3c
       -0.03422733 0.002213914 0.023615062 0.0096885525
000080 20 ee fd bc 8b f7 c5 bc 56 4c 8c 3c 93 3b 45 3c
       -0.030997336 -0.02416589 0.017126244 0.012038129
000090 13 46 60 bb 44 13 09 3d 54 33 01 3d 6f 10 d2 3c
       -0.0034221455 0.03346564 0.03154309 0.025642602
0000a0 5b a6 98 bc b9 38 7a 3c 68 63 d5 b9 0a 5c e5 3c
       -0.018634012 0.015272313 -0.0004070059 0.02799799
0000b0 19 8d b4 bc e3 66 19 3c 69 63 13 bc 70 66 f6 bc
       -0.022039937 0.009362909 -0.008995869 -0.030078143
0000c0 5b 6a ee bb 9b 12 3e bc 7b 07 12 3d 41 51 2d bc
       -0.007275862 -0.011601116 0.035651665 -0.0105784545
0000d0 96 f6 c2 3c ca 03 9b bc 4c f2 ea bc f8 26 a9 3b
       0.023799222 -0.018922705 -0.02867999 0.005162116
0000e0 00 dd f2 39 58 50 f2 bc e9 b6 e9 3c 53 9c e0 3c
       0.00046322495 -0.029579327 0.028529601 0.027418291
0000f0 2c d7 e8 bc 89 58 14 3c 69 06 08 3d 80 5f 23 3d
       -0.028422914 0.009054312 0.03320924 0.039885998
000100 08 57 80 3c d1 48 42 3c fa 98 37 3d 21 42 4d 3b
       0.0156665 0.011858181 0.044823624 0.0031319933
000110 b1 c1 9f 3c c8 92 3b 3d 51 df 9f bc ef 82 ea bc
       0.019501539 0.04579428 -0.019515665 -0.028626887
000120 48 19 83 3c 31 ec c3 3c 8f 01 df 3c 30 b8 bd bc
       0.016003266 0.023916336 0.027222423 -0.023159117
000130 63 a4 96 bc e8 0a f9 3c 59 c0 cc 3c 34 ca 96 bc
       -0.018388933 0.030400708 0.024994062 -0.018406965
000140 92 29 9a bb 3c 2c 5d 3c 77 6b 08 3d 83 2e e2 bc
       -0.0047046626 0.013499316 0.03330561 -0.02761007
000150 96 3f e2 3c 1c eb 49 bc ea 56 a4 bc dd 33 42 3c
       0.02761821 -0.012324121 -0.020060975 0.0118531855
000160 3b fc b6 3c b9 1b 01 3d ea 5e de 3c 7b 01 80 bc
       0.02233707 0.03152058 0.027144868 -0.015625706
000170 f7 27 44 3c 60 18 00 bc 59 d5 12 ba 36 13 7a 3d
       0.011972419 -0.007818311 -0.0005601249 0.061053477
000180 ca c3 97 3a 90 49 c7 3c f9 58 9f 3b 14 0a 2c 3d
       0.0011578735 0.02432707 0.0048629013 0.0420018
000190 4a ac a1 3c de 8d 47 3d 32 81 60 bc ca c2 d2 3c
       0.019735474 0.04871928 -0.013702678 0.025727648
0001a0 b0 0f af 3c 91 9f 71 bc cf 6e cc bc 98 c8 a1 3c
       0.021369785 -0.014747516 -0.024955181 0.01974897
0001b0 8b ee d1 bc 4e 0d 55 bc 2c 96 fd bc ac b8 c6 3c
       -0.025626441 -0.01300366 -0.030955397 0.02425798
0001c0 c0 67 8b ba 98 58 91 3c e1 6b d1 3c a4 58 a2 3c
       -0.0010635778 0.01774244 0.025564136 0.019817658
0001d0 19 34 d6 3c ae 73 41 3c 62 42 6c 3c 0c 43 cb 3b
       0.026147889 0.011807365 0.014420124 0.006203061
0001e0 ea bc f4 3c 33 03 bf 3c fc 62 9a 3b 38 c2 1c 3d
       0.029875237 0.023316955 0.004711507 0.03827116
0001f0 e5 e7 03 3d fc a4 a0 3c 4a 94 66 3d d6 fc 25 3d
       0.032203574 0.01960992 0.056293763 0.040524326
000200 55 80 12 3d 29 c1 e2 3c 09 dc 2a 3d 91 78 82 bb
       0.03576692 0.027679997 0.041713748 -0.003981658
000210 02 02 2b bb 97 3a e1 bc 36 ee ef bc 64 ea 51 bc
       -0.0026093726 -0.027493758 -0.029288393 -0.012812231
000220 08 9a c4 3c a7 b8 7d bc 3f d4 b8 bc 09 bb a7 3b
       0.02399923 -0.015485919 -0.022562144 0.005118732
000230 03 fb 0a 3d d2 8b dc 3c 10 2d 24 3c 7f 4b 83 bc
       0.03393079 0.02692214 0.010020509 -0.01602721
000240 a5 f7 0d bd f2 c5 71 bd f3 3f 97 bc 44 88 c3 bc
       -0.03466 -0.059026666 -0.01846311 -0.023868687
000250 e1 a5 1d bb 6b d9 4c 3c 82 26 8a 3c 10 c7 74 3d
       -0.002405517 0.012503008 0.016864065 0.059760153
000260 50 9d bd 3c b5 a1 48 3d 83 c3 57 3d ab 07 f1 3a
       0.023146302 0.04898234 0.05267669 0.0018389126
000270 48 a9 1d 3d 44 c3 03 3d 36 25 4a 3d 6d 68 6f 3c
       0.038491517 0.03216864 0.049351893 0.014612299
000280 d5 70 33 3c 65 29 03 3c d7 9c 91 3b 8f 85 18 bd
       0.010952194 0.008005475 0.0044437456 -0.037236746
000290 e6 c0 8d 3c b2 46 d7 bc 24 2d 0f 3d d0 06 ab bc
       0.017303895 -0.026278827 0.03495516 -0.020877272
0002a0 2e d6 40 bc 99 1c af bc ec 2e de 3c f5 ca 84 bc
       -0.011769814 -0.021375941 0.027121983 -0.016210059
0002b0 c9 15 4b bb 41 5c 4b bd 50 b0 8d bd 30 66 eb bc
       -0.0030988327 -0.049648527 -0.069183946 -0.02873525
0002c0 27 32 83 3c 62 f2 be bb c9 eb 91 3c a5 e1 03 3c
       0.016015125 -0.005827234 0.017812626 0.008049403
0002d0 a1 55 0f 3c c1 8a 43 3d 5b fd 35 3d 12 ac b6 3d
       0.008748443 0.047739748 0.04443107 0.089195386
0002e0 73 d6 8e 3b b5 59 76 3d 4d c4 92 3c e0 70 e0 ba
       0.0043590604 0.060144145 0.01791587 -0.0017123483
0002f0 af 64 12 3c 16 40 10 3c 4c b9 69 bd db bc 3b bb
       0.008935138 0.008804342 -0.05706148 -0.0028646502
000300 dd 30 a0 3b 67 dd 18 3d c3 17 af bc 5d ec 06 3d
       0.0048886375 0.03732052 -0.021373635 0.032940257
000310 e1 88 0f 3c 5c 46 c8 bc 35 88 d9 bb 84 ed 2a bc
       0.008760662 -0.024447612 -0.0066385516 -0.010432605
000320 10 08 1b bc 5d f6 32 bd 28 0a 97 bc 40 8e b6 bc
       -0.0094623715 -0.04369198 -0.01843746 -0.022284627
000330 bd bd 85 bc ce 30 48 3b 3e c7 9c bc 7d e0 3e 3b
       -0.016325826 0.0030546668 -0.019137975 0.0029125505
000340 8e 64 13 3d 9b 8c 68 3d a5 9f 49 3d e6 21 dd 3d
       0.03598457 0.056774717 0.049224515 0.10797481
000350 2d 45 b1 3d 95 3c e2 bb 78 8a 87 bb 73 80 2d bb
       0.08655772 -0.0069041946 -0.00413638 -0.0026474267
000360 6a 41 5c bd aa a3 02 bc 12 45 6b bd f5 43 03 3d
       -0.05377332 -0.007973591 -0.057438917 0.03204723
000370 b7 30 2a bc 5b 09 59 bc fa 7c 89 bc aa 4a 82 3c
       -0.010387591 -0.013246859 -0.016783226 0.015904743
000380 01 08 f1 bb f2 12 a7 bc 12 46 8c 3c 47 66 14 bd
       -0.0073556905 -0.020394776 0.017123256 -0.03623035
000390 26 36 bb bc 8e e5 d8 bc f2 f2 42 bd 02 f6 4f 3c
       -0.022852968 -0.026476648 -0.047594972 0.01269293
0003a0 8a 8a 21 3d 7e ab 44 3d cb ca 06 3d 94 39 33 3d
       0.03943876 0.04801511 0.032908242 0.043756083
0003b0 5e 23 a4 3c da 12 70 3d 11 e1 b3 3d 2e 62 9f 3d
       0.020036396 0.05861173 0.087831624 0.07782398
0003c0 c8 bd c8 3c 62 45 da bc 1b 54 9b bd 21 ce 81 bc
       0.024504557 -0.026644412 -0.07584401 -0.01584536
0003d0 51 1d b7 bc 98 a8 3a bd 25 88 a0 3c e8 e6 14 3c
       -0.022352846 -0.04557094 0.019596169 0.009088255
0003e0 07 64 51 3d 2d 36 75 bc 46 e5 bc bc d3 b0 30 3b
       0.051120784 -0.01496653 -0.023058545 0.0026960864
0003f0 2d ca 8e bc 6f 06 95 3b 73 a1 10 bc 99 99 f7 3a
       -0.01743039 0.004547886 -0.008827555 0.001889038

layer1.bias f4 [50]
000000 ae 7e 0e bd 1f 93 03 bd 38 cf 87 bc f5 e0 23 3e
       -0.03478878 -0.032122727 -0.016578302 0.16003783
000010 e0 1a 9e 3d 98 b4 31 bd 61 e7 d8 3c a6 69 87 3c
       0.0771997 -0.04338512 0.026477518 0.01652987
000020 18 38 a3 3c 70 f6 44 bd 9d cb bb 3b 31 64 22 3d
       0.019924209 -0.048086584 0.0057310597 0.03964633
000030 1e aa 26 bd f3 47 4a 3d e0 82 b8 3d 3f 20 04 3d
       -0.04068958 0.049385022 0.090093374 0.032257315
000040 c4 ff 28 bd 03 71 60 3d e8 c7 18 3d 5c 63 a0 bc
       -0.041259542 0.054795276 0.03730002 -0.019578628
000050 5b fb e3 bd 12 82 30 3d 2c 82 74 3d 99 d2 e8 bd
       -0.111319266 0.043092795 0.059694454 -0.11368293
000060 4a 0c 0d 3e 1f 79 b0 3d b0 1e 1e bd a0 f3 e8 3b
       0.13774219 0.08616852 -0.038603485 0.0071091205
000070 7e 84 4d 3e ba db 46 3d 17 9f 20 3e 9f 4a aa bd
       0.20070073 0.04854939 0.15685688 -0.08315014
000080 db 3d c2 3c 08 14 a2 3d 14 be 4d bb 47 54 80 3d
       0.023711136 0.07913977 -0.0031393813 0.06266075
000090 1c d0 bd 3c b6 23 ff bc e6 fd 22 3e 9d 1a b3 bd
       0.023170523 -0.031144958 0.15917167 -0.087453105
0000a0 d8 71 4d 3c 26 19 af 3c 96 10 01 3d de f7 ed 3c
       0.0125393495 0.021374296 0.03150996 0.029048856
0000b0 e7 f8 7f bd be 0a 21 3b 62 28 78 3d 38 60 99 bd
       -0.06249323 0.0024573053 0.060585387 -0.074890554
0000c0 cf 5a c3 3d 04 4c 67 bc
       0.09538805 -0.014117245

layer2.weight f4 [100, 50]
000000 6d c7 7d 3d 91 b1 8c 3d 9e fc ce bd 1f 72 35 be
       0.061957765 0.068698056 -0.10106777 -0.17719315
000010 97 c7 af bc fd 2c d1 bd 53 30 8e bd f1 52 93 bd
       -0.021457477 -0.10213659 -0.06942811 -0.07193554
000020 6a 94 8f 3e 87 1a 09 3e c8 1b cc 3d e5 f5 2d 3e
       0.28042918 0.13389026 0.09966236 0.16988333
000030 13 53 a2 3a 9b 06 d4 3d 10 8f ab bd d8 d1 2f be
       0.0012384377 0.103528224 -0.083768964 -0.17169893
000040 3b 46 42 3e 2a 91 9d bd 59 21 1b 3d 7b 09 d8 bd
       0.18972103 -0.076937035 0.0378736 -0.10548683
000050 37 34 d3 bb b0 47 54 be 82 fc e8 3c 0f b8 02 bc
       -0.0064454335 -0.20730472 0.028440718 -0.007978453
000060 47 d0 80 3e 5a fd a5 bd b3 fd 64 3e dc 8b 8d 3d
       0.25158903 -0.081049636 0.22362404 0.06911442
000070 66 51 b4 bc 9d 5d 2c 3e 77 34 d3 bd e4 80 98 bd
       -0.02201147 0.16832586 -0.10312741 -0.07446459
000080 c1 11 9e 3d e3 88 9a bd a6 ee 2e 3e a7 fc 9f bd
       0.0771823 -0.0754564 0.17083225 -0.078118615
000090 ab 46 48 3e 4a 58 b4 3d 5d 87 99 bd 36 ab 3d 3e
       0.19558208 0.08805902 -0.074965216 0.18522343
0000a0 90 80 9c 3b a3 51 f1 3c c7 00 ce bd d9 74 53 3e
       0.004776068 0.029457873 -0.10058742 0.20650043
0000b0 19 f1 18 3e 7e a6 07 3d 0d fa 3a 3e 33 73 9a bd
       0.14935721 0.033117764 0.1825945 -0.07541504
0000c0 71 ec 8a bc 42 44 c8 3d 12 0c 04 be 8d f4 fa 3d
       -0.016958447 0.09778644 -0.1289523 0.122536756
0000d0 a9 c0 0e bd bd c3 8c bb 87 87 19 be 48 22 72 bd
       -0.034851704 -0.0042957948 -0.14993106 -0.059114724
0000e0 d5 fe 10 3e 71 01 62 3e 1f 73 22 bd 48 77 46 3c
       0.1415971 0.22070862 -0.03966057 0.0121134
0000f0 48 f2 91 3d 58 78 39 3e 92 cc df bc 38 94 00 3d
       0.071262896 0.18112314 -0.027319226 0.031391352
000100 ec 09 ae bc 04 a1 9f 3c a6 bf 1f 3e 0e 73 09 3d
       -0.021244965 0.019485958 0.15600452 0.03355699
000110 b8 10 00 3e 7d ca c1 3d 38 d4 03 3d ab 5d 23 3d
       0.12506378 0.0946245 0.03218481 0.03988425
000120 aa de 13 be 30 c8 25 3e fa 52 18 bd 07 e5 6a 3b
       -0.14440408 0.16189647 -0.037188508 0.0035842077
000130 dd 13 1e be 4f 7e a3 3d 21 91 0a bd 1c dd e2 bc
       -0.15437265 0.07983076 -0.033829812 -0.027693324
000140 26 32 14 bd 10 e6 01 3e db d3 95 3e 7b e5 05 be
       -0.036180638 0.12685418 0.29263195 -0.13075821
000150 38 45 11 be df ec 55 3d dd dc 77 bd 1c f7 ea bd
       -0.14186561 0.05222785 -0.060513366 -0.114729136
000160 59 61 aa 3d 17 b1 c4 3d c1 6b 75 bd e9 e2 80 3e
       0.08319349 0.0960409 -0.059917215 0.2517312
000170 50 74 0b bc d1 cd 04 be 61 30 40 3c cb 78 40 3d
       -0.008511618 -0.12969138 0.011730284 0.046990197
000180 30 98 e4 bd 2b f3 d1 bd 24 23 09 bd 2e fe b0 bc
       -0.1116184 -0.10251459 -0.03348078 -0.021605577
000190 3c b0 db 3d 7c 12 35 bd 4d c2 83 3d a1 5f d1 bc
       0.107269734 -0.04420708 0.06433544 -0.025558295
0001a0 ef 82 6e be 5f d4 1b be e5 f5 62 bd 3f 0c 11 3e
       -0.23292135 -0.15217732 -0.055410285 0.14164828
0001b0 c8 56 8d bd d9 f0 22 be bb d6 92 3e ee b0 51 3d
       -0.06901318 -0.15912189 0.2867945 0.051194124
0001c0 af 82 18 3e 82 33 47 bd a9 c4 4f 3e ab c9 04 be
       0.14893602 -0.048633106 0.20289864 -0.12967555
0001d0 59 9c 35 3e 14 48 3c 3e 19 d4 b6 bd 13 87 2e 3c
       0.17735423 0.1838687 -0.08927173 0.010652321
0001e0 1c 79 db bd 73 97 d4 3d fc 40 1a 3e 11 a7 03 be
       -0.10716459 0.10380449 0.15063852 -0.128567
0001f0 6e bb c4 3d 43 15 fb 3c a5 62 60 3e a1 11 cc be
       0.09606062 0.030649787 0.2191263 -0.398572
000200 25 20 01 3e 60 a8 4a bd 37 1a 8e 3e 32 2e 2c be
       0.12609918 -0.04947698 0.27754375 -0.16814497
000210 f0 a3 1e 3e 7a 72 5f be e1 b5 b1 bd fe 19 50 be
       0.15492225 -0.21821013 -0.08677269 -0.20322415
000220 66 fc c2 bd e5 94 1d 3d 21 d4 ab 3d 5e aa 49 bd
       -0.095207974 0.038472075 0.0839007 -0.04923474
000230 bc e1 84 bd 40 63 b1 bd 54 46 d0 bd 92 c7 0f 3c
       -0.06488368 -0.086615086 -0.10169664 0.008775609
000240 c0 83 d3 bd db 6b a9 3d 38 0d aa 3d eb 2d a2 be
       -0.10327864 0.08272525 0.083033025 -0.31675658
000250 f5 6f 11 3e d1 b8 a7 3c 99 18 74 3d 23 6c d0 bd
       0.14202864 0.02047387 0.05959377 -0.101768754
000260 4f 07 1a 3e 7a 1b 26 3d 38 35 00 be 4e d2 b1 3d
       0.1504185 0.040553547 -0.12520301 0.086826906
000270 c6 88 c4 3d 07 f8 98 3e c8 27 64 be 6b 14 31 be
       0.095964 0.2987673 -0.222808 -0.17292945
000280 bb fe dc 3d eb 52 17 3d 00 b4 95 bd d3 87 8d bd
       0.107907735 0.03694431 -0.07309723 -0.06910672
000290 f9 6d 05 3e 3c aa 35 be e2 41 76 bc 1e 83 15 3e
       0.13030232 -0.1774072 -0.015030356 0.14600798
0002a0 59 e1 15 3e 62 5b 17 3e df ac 34 3e f6 d0 fb 3d
       0.14636745 0.14780954 0.1764407 0.122957155
0002b0 1e ec a3 bc 77 be bc 3c e9 bd 61 bd 98 b1 45 3e
       -0.02001005 0.02304004 -0.055112753 0.19306028
0002c0 d7 2d 6a 3e c5 dd 0c bd 64 eb 0f 3d ce c8 22 3d
       0.22869049 -0.034391183 0.035136595 0.039742284
0002d0 4b 85 53 3d 44 7a 6d 3d 18 0d 9c 3e 2d 8c 63 be
       0.05164079 0.05797793 0.3047874 -0.22221442
0002e0 fa f5 25 be f4 c9 c7 bd 52 2a e8 bd 93 bf df 3d
       -0.16207114 -0.097553164 -0.11336197 0.10925212
0002f0 cd 99 2c 3e 2c 32 7c 3b 32 54 06 3e db 1e 63 3d
       0.16855545 0.0038482053 0.13118055 0.055449348
000300 64 a2 5f be 9f 32 73 bc c3 cb 8f bd 3a 07 1d bd
       -0.21839291 -0.014843612 -0.07021286 -0.03833697
000310 20 f2 a9 bd 4a 04 68 bd 85 dc 2f 3e 1b 9d f9 bd
       -0.08298135 -0.056644715 0.17173965 -0.121881686
000320 83 d4 a6 3d 20 2c 78 bd f0 19 5b 3d b0 de 1e bd
       0.08146002 -0.060588956 0.053491533 -0.03878659
000330 7e 8b 92 3d 27 3d 08 3e 88 07 e7 bd b3 a5 fc bc
       0.07155512 0.13304578 -0.11280733 -0.03084073
000340 e1 a7 28 be c4 28 4d 3c 9b 1a b8 3d e5 ab f2 bc
       -0.1647029 0.012521926 0.089894496 -0.029622981
000350 71 7c 25 bd 1f 3b e7 3d b4 ac 4e 3e 8b 01 03 bb
       -0.04040188 0.11290573 0.20183069 -0.0019989933
000360 8a a8 b2 bd 5e 85 d9 3d 16 ee 0b bd 46 9b db bc
       -0.087235525 0.10621141 -0.034162603 -0.026807439
000370 42 b0 b5 bd 7d e7 2a 3d 50 f4 ca bd 5c 96 cc bd
       -0.08871509 0.04172467 -0.0990988 -0.09989616
000380 57 7a e2 3d 5f 3a 2f 3e 76 ce c3 3d 20 b4 3d be
       0.11058491 0.1711211 0.09560864 -0.18525743
000390 80 af 51 3d d8 cb 7f 3c a8 2a 17 bd bc 8f cb 3d
       0.05119276 0.015612565 -0.036905915 0.099395245
0003a0 f8 1c 27 3b cf e7 c4 3c a6 2c 7f 3d b6 ba fc 3d
       0.0025499444 0.024036316 0.06229844 0.123403
0003b0 14 26 21 3e 46 a5 e4 bb 76 10 fb 3c e1 71 0d 3b
       0.15737182 -0.00697771 0.030647498 0.002158277
0003c0 97 eb d0 3c 13 cf d0 bd 6c 9b 0e be 67 86 c0 bd
       0.025502963 -0.10195746 -0.13926476 -0.09400635
0003d0 65 91 bb bd 81 11 a4 3d db f7 e3 3d 35 86 06 3d
       -0.09158591 0.08011151 0.11131259 0.032842834
0003e0 e5 78 22 3e a2 24 5e bd ea c8 36 bd 05 be a1 bd
       0.1586643 -0.054234155 -0.0446252 -0.078975715
0003f0 8e 58 b1 3d 77 d6 e9 3d ee 0c 8f bc 8a d6 5e 3d
       0.086594686 0.11417859 -0.01746222 0.05440382

layer2.bias f4 [100]
000000 80 dc f8 3d e9 fa 86 3d 21 09 1e 3e b7 0b 23 3e
       0.12151432 0.06590826 0.1543317 0.15922438
000010 b2 91 51 bd db c9 23 be 57 99 39 bd 6f a8 d6 3c
       -0.051164337 -0.1599497 -0.045312252 0.026203362
000020 1a 50 89 bd a6 d2 fe bd e8 ed cb 3d f3 1e 70 3e
       -0.06704731 -0.12442522 0.099574864 0.23449306
000030 70 63 fd 3d 12 92 87 bd 1e 56 ba 3c 64 41 a7 3d
       0.12372482 -0.066196576 0.022746142 0.08166769
000040 9e 05 dd bc ba cd 43 3e b6 06 e0 bd f1 09 3c 3d
       -0.026980218 0.19121447 -0.1093878 0.04590792
000050 53 f3 a4 b9 36 d5 9e bd 6d 8a c9 bb 47 54 25 3c
       -0.00031461808 -0.077555105 -0.006150535 0.010090894
000060 03 3b 8d 3d 96 b5 c9 bd 3c 71 f2 3c 06 04 8d bd
       0.06896021 -0.09849088 0.02959501 -0.06885533
000070 87 eb 96 bd a5 95 b9 3d a5 e6 ea bd d2 25 a9 bd
       -0.07369142 0.090617456 -0.11469773 -0.08259167
000080 e9 7a 95 bd ed b0 c9 bd 46 9b d7 3d 6a 1e 4d 3d
       -0.07298834 -0.09848199 0.10527663 0.050077833
000090 6c 5e fe 3d 8d 36 4d bb e2 0e e2 3d da 5c ac 3d
       0.12420353 -0.0031313032 0.11037995 0.084161475
0000a0 3d 58 fd 3d b0 0f 05 3c 89 9d 09 be f5 01 b1 3d
       0.12370346 0.008121416 -0.13439001 0.086429514
0000b0 6a c1 2b 3e 5c 57 49 3d 34 d4 32 3e b7 9f 7c 3d
       0.16773 0.049155578 0.17463762 0.061675753
0000c0 1a 8d 13 bd 7e 82 4a bd 43 e0 54 bd 4e ff fe 3d
       -0.036023237 -0.049440853 -0.051971685 0.12451039
0000d0 38 a7 80 bd 65 82 8b bd 53 6e 04 be 84 0e 9f 3d
       -0.062818944 -0.0681198 -0.1293271 0.077664405
0000e0 03 36 3a 3e 4f ee bc 3d 8b 83 04 be 90 b6 d7 3d
       0.18184666 0.09225141 -0.12940805 0.10532868
0000f0 bd 99 61 3e 97 f2 d8 bd 74 70 44 3e e4 48 e4 3d
       0.22031303 -0.10593145 0.19183522 0.11146715
000100 21 8f fa 3d 71 6d dd 3d d5 39 f6 bd c7 3d d2 bd
       0.12234331 0.1081189 -0.12022749 -0.10265689
000110 77 2c 2e 3c 83 d5 9a 3d a6 6f ea bd 45 40 37 bd
       0.010630718 0.075602554 -0.114470765 -0.044739027
000120 3c 62 48 3e 2a 67 a1 bd 22 89 0f be 7a a2 ab bd
       0.19568723 -0.07881005 -0.14017156 -0.08380599
000130 28 0e e4 3d 7f 13 3e 3c ab 2e 8f 3d 12 c2 e6 3c
       0.111355126 0.011601328 0.06991323 0.028168712
000140 fe dd 56 be 6f 05 f6 bd e0 7c e2 3d 14 a9 08 3e
       -0.20983121 -0.12012755 0.11058974 0.13345748
000150 41 72 1f bd 4f 0d a9 3a 47 63 19 be ae fc a7 3d
       -0.03892732 0.0012897643 -0.14979278 0.08202492
000160 5d ae 54 be f3 f2 40 be 37 dd ba bd 03 fc 70 3d
       -0.2076964 -0.18842678 -0.09124225 0.058834087
000170 0d 1c 4b 3e 4b 71 41 3d 4a 36 18 3e 8e cf f9 bd
       0.1983492 0.047227185 0.1486446 -0.12197791
000180 85 e5 c8 bd 04 6c 80 3d d7 8c eb 3d 0d cf 54 3e
       -0.098094024 0.06270602 0.115014724 0.20782109

layer3.weight f4 [10, 100]
000000 08 a0 2a be f4 9b 45 be 57 14 e8 3c 72 64 4d 3e
       -0.1666261 -0.19297773 0.028330011 0.20057848
000010 d7 ba 5c 3d bf b0 74 3e 80 87 d2 3e d9 fe cc bc
       0.05388912 0.23895548 0.41119003 -0.025023865
000020 6f 70 3c bc e1 b3 1d 3e 3b 5c 44 be 9c 87 0f be
       -0.011501416 0.1540065 -0.19175808 -0.14016575
000030 4e 96 b8 3e 81 f0 82 bc f5 82 21 be 3d 72 c1 bd
       0.36052173 -0.015983822 -0.15772612 -0.09445617
000040 23 3b 75 3d 7d 13 ff 3d 5e 46 48 bd fe 57 13 3e
       0.05987085 0.12454889 -0.048895232 0.14389035
000050 29 c6 c9 bd 48 b6 59 3d c5 da fc bb 5a 50 35 3c
       -0.09852249 0.053152353 -0.007716509 0.011066521
000060 25 07 05 be 1d 7f 33 bc 47 86 a8 3d 75 2b 92 bc
       -0.12991007 -0.010955599 0.08228736 -0.017842988
000070 3d b8 a1 bd b1 2f 03 bd fb 75 a8 3d ca 12 cf 3b
       -0.07896469 -0.032027904 0.08225628 0.0063193785
000080 30 f0 f8 3b 76 27 54 be 19 23 db 3d 09 50 b1 bc
       0.007596992 -0.20718178 0.10700054 -0.021644609
000090 f3 64 fc bd 76 11 2a 3c 98 63 88 3e a8 be 6e 3d
       -0.12323942 0.01038014 0.26638484 0.058287293
0000a0 7f cf ff 3d 3f 44 c1 bd 74 41 e6 3c 93 e3 00 bd
       0.124907486 -0.09436845 0.028107382 -0.03146703
0000b0 b0 7f a5 bd c6 72 6d 3e ad c9 85 be 0a 9d 00 be
       -0.08080995 0.23188314 -0.2613043 -0.12559906
0000c0 09 41 8a 3e 1b 1e 89 bd 85 c7 00 be 33 c8 6d bd
       0.27002743 -0.06695195 -0.1257611 -0.058052253
0000d0 46 7c b7 bb 0b 88 44 3d ef bd eb 3d 3d f3 d9 ba
       -0.0055995313 0.047981303 0.11510836 -0.0016628277
0000e0 51 e8 0a be 56 03 65 be 62 cf b2 3d cf 14 44 be
       -0.13565184 -0.22364554 0.087309614 -0.19148563
0000f0 f1 fd 7c bd 8c 4b 4c 3c 7a 00 06 3f e5 4b c0 3d
       -0.061765615 0.012469184 0.5234448 0.09389476
000100 6e c2 59 3d 4f 40 a4 3d 3f fb 41 3d a1 b5 b8 3c
       0.05316394 0.080200784 0.047358748 0.022547545
000110 84 40 e8 bd 7c 5c e6 3d b7 b5 d0 3d 40 ee 04 bd
       -0.113404304 0.11248109 0.10190909 -0.032453775
000120 e6 97 a7 bc f1 60 28 be 19 64 03 bd 02 e5 f2 bd
       -0.020458173 -0.1644323 -0.032077882 -0.11860086
000130 bd 1d 79 bc 92 bb 67 be e5 f0 9f be ad fb 34 3e
       -0.015204844 -0.22630146 -0.31238475 0.17674132
000140 b9 2e 5b 3e 29 54 3f bd 98 46 78 be 95 67 92 be
       0.21404542 -0.04671112 -0.2424568 -0.28594652
000150 d7 88 1a 3d 48 6b d6 bd d8 2d 34 3e c4 3e df bd
       0.037728157 -0.10469681 0.17595613 -0.109006435
000160 4f da 14 3e 2f 8a fa bc 20 6f 80 bd 98 96 24 3e
       0.14536403 -0.03058347 -0.062711954 0.16073072
000170 a9 fa 80 be 80 52 d9 bd a1 f1 3e be 37 78 3b bd
       -0.2519124 -0.10611439 -0.18646862 -0.045768943
000180 5d ce 00 3d a1 ce 4f bd 11 61 7a bd ae b8 35 be
       0.031446803 -0.050734166 -0.061127726 -0.17746231
000190 e5 38 53 3e 05 8a aa bd f3 92 31 be 49 40 55 be
       0.20627172 -0.083271064 -0.17341213 -0.20825304
0001a0 4f ad 33 bb 56 5d c9 3c 73 33 c3 bd 09 8e 79 3d
       -0.0027416532 0.024580639 -0.095312975 0.06092647
0001b0 ee 6c d0 bc ce 4a 9d 3d 61 bc 87 be e7 c2 51 3e
       -0.025442567 0.076802835 -0.2651091 0.20484506
0001c0 f7 44 15 3e bc f6 85 bc 05 53 ce 3c b3 35 aa 3e
       0.14577089 -0.016353004 0.025186071 0.33244094
0001d0 2e db 3b 3d 5e 2d ae bc a7 8f 55 3d 2a d5 97 be
       0.045863323 -0.021261867 0.05213895 -0.2965482
0001e0 2e bc bf bc 3b 50 72 3e 35 63 35 3e 3c d8 af 3c
       -0.02340516 0.23663418 0.17713626 0.021465413
0001f0 f1 ce 24 be e0 af a6 bc 50 b3 0f 3e 4c 47 83 bd
       -0.16094567 -0.020347536 0.14033246 -0.06410083
000200 60 de 87 3d 74 d7 61 be ce 50 07 3d c7 0d ab bd
       0.066342115 -0.22054845 0.033036046 -0.08352237
000210 0e 09 8f bd 66 51 4b 3e 4d 68 52 be c8 f2 b9 bd
       -0.06984149 0.1985527 -0.205476 -0.0907951
000220 c1 89 49 3e 46 2f 94 be ab 69 fb bd 68 be 47 3e
       0.19681455 -0.28942317 -0.12276014 0.19506228
000230 f6 54 49 3d 83 28 99 be ce 55 68 3d a8 ea 1a be
       0.04915329 -0.2991372 0.056722455 -0.15128577
000240 d0 82 2a 3e b1 8a 79 3c 1b 2b 25 3e 89 7b a4 bd
       0.16651464 0.0152308205 0.16129725 -0.08031375
000250 e9 b9 a2 be b0 f2 c0 3d 79 9d 51 3d 52 89 04 3e
       -0.31782463 0.09421289 0.05117557 0.12943009
000260 b3 95 e3 3d 50 2a 98 3d 4b 06 94 bd 62 1a a7 bc
       0.11112537 0.074299455 -0.07227763 -0.020398322
000270 37 24 de 3e 64 77 32 be db fc 2f be 09 ae 29 be
       0.43387005 -0.17428356 -0.171863 -0.16570295
000280 12 26 2b bd ff 8c ed 3d 32 12 01 be 80 10 04 3c
       -0.041784354 0.115991585 -0.12604597 0.0080605745
000290 f1 22 56 be 4e 59 95 3a 6b b9 6d 3c 21 21 18 3d
       -0.20911767 0.0011394413 0.014509539 0.03714097
0002a0 20 9a f4 3b fe d7 55 be b5 e7 8d be 6d 7e 87 bd
       0.007464662 -0.20883176 -0.2771584 -0.06615911
0002b0 7a 76 91 3e e7 11 49 be ea 41 59 3d 47 af 40 bc
       0.28410703 -0.19635735 0.053041376 -0.011760539
0002c0 6d d4 d9 3d f0 83 87 be 91 08 b4 3e 94 6b 3f be
       0.1063622 -0.26467848 0.35162786 -0.18693382
0002d0 22 16 f7 ba d5 cf 8f bd a9 53 8b 3d 5e 7f 14 3d
       -0.0018851201 -0.07022063 0.06803066 0.03625428
0002e0 03 2f f7 bb c4 48 82 3d 80 bc 6b bd 34 76 13 bd
       -0.007543446 0.06361535 -0.057552814 -0.0360014
0002f0 42 ee 34 bd a1 63 df 3d bf f3 2e bd ab ea 49 3d
       -0.044172533 0.109076746 -0.042712923 0.049296062
000300 f7 40 bb 3e 4b c5 c3 bc 6f e1 68 bd 93 72 5a 3d
       0.36573002 -0.023897788 -0.056855615 0.053331923
000310 0c 2f 8f bd 85 cf 0f 3e 15 2d 60 be 7c 57 be 3e
       -0.06991395 0.14044006 -0.21892197 0.3717612
000320 4a e5 2d 3e 73 ff e0 bd 39 6c a4 bd d9 2d df bd
       0.16981998 -0.10986223 -0.08028454 -0.108974166
000330 36 c3 85 3d e0 02 70 3e 52 a0 c3 bd ab 53 d4 3d
       0.06531374 0.23438597 -0.09552063 0.10367521
000340 bb 6a 92 bd ba 21 d8 3b 62 0d e1 3e 52 2b 18 be
       -0.071492635 0.0065958174 0.43955523 -0.14860275
000350 dd 02 da 3d 68 58 42 3d 7d 7d b1 3d a1 08 b6 3d
       0.106450774 0.047447592 0.08666513 0.088883646
000360 be 67 81 bd 0c cb fc bc f5 80 d2 bd 49 d4 1a be
       -0.063186154 -0.030858539 -0.10278503 -0.15120043
000370 e8 0c 3c bc aa 2d da bd 84 8a d3 3d 35 dd fa bb
       -0.011477686 -0.10653241 0.10329154 -0.0076557645
000380 70 7a a0 3e 85 be 20 bd 40 b8 d2 bc da 0e b0 3d
       0.31343412 -0.039244194 -0.025722623 0.08596583
000390 0f dd b1 bd 6f a1 21 3e da 0f 60 3d 66 c1 c5 bd
       -0.08684742 0.15784238 0.054702617 -0.096560284
0003a0 17 54 a7 3d 3a a2 86 3d 56 24 86 bb c2 2c 95 bc
       0.08170336 0.06573911 -0.004093687 -0.018209819
0003b0 cc b4 c1 3d ee 8c c7 3d 4b a9 4e be 55 6f ab be
       0.094583124 0.09743677 -0.20181768 -0.33483377
0003c0 f5 7f a2 bd 2b 11 cd 3d a3 8e 23 3d e5 43 95 be
       -0.07934562 0.1001304 0.03993095 -0.29153362
0003d0 fc 1b 8b 3c 5e e4 c0 3e 01 7e 26 be 56 5c aa bd
       0.016981117 0.3767423 -0.16259004 -0.08318393
0003e0 da 51 9d 3d 51 1d 4d bd e9 05 1c be 95 25 84 3d
       0.076816276 -0.050076786 -0.1523663 0.06452481
0003f0 39 2e b1 bd 89 0b 04 3d 66 f4 43 3d 6e 98 28 3f
       -0.086513944 0.032237563 0.0478405 0.6585759

layer3.bias f4 [10]
000000 e1 9d 0a be 25 22 3b 3e 72 f8 83 bd d9 8f 76 be
       -0.13536789 0.18274744 -0.064438716 -0.24078311
000010 8d b5 89 3c c3 a1 90 3e 1f 75 24 be 9b f0 e7 bc
       0.016810203 0.28248414 -0.16060303 -0.028312972
000020 3b 8a 61 be 52 06 e8 bc
       -0.22025387 -0.028323326
